…
axlen=100)","deque([], maxlen=100)","20000","false","0.95","0.99","0.0003","FloatSchedule(ConstantSchedule(val=0.0003))","0.5","PPO","11","8","10","8","2048","100","true","true","True","0","Box(-inf, inf, (2,), float32)","ActorCriticPolicy(
  (features_extractor): FlattenExtractor(
    (flatten): Flatten(start_dim=1, end_dim=-1)
  )
  (pi_features_extractor): FlattenExtractor(
    (flatten): Flatten(start_dim=1, end_dim=-1)
  )
  (vf_features_extractor): FlattenExtractor(
    (flatten): Flatten(start_dim=1, end_dim=-1)
  )
  (mlp_extractor): MlpExtractor(
    (policy_net): Sequential(
      (0): Linear(in_features=2, out_features=64, bias=True)
      (1): Tanh()
      (2): Linear(in_features=64, out_features=64, bias=True)
      (3): Tanh()
    )
    (value_net): Sequential(
      (0): Linear(in_features=2, out_features=64, bias=True)
      (1): Tanh()
      (2): Linear(in_features=64, out_features=64, bias=True)
      (3): Tanh()
    )
  )
  (action_net): Linear(in_features=64, out_features=11, bias=True)
  (value_net): Linear(in_features=64, out_features=1, bias=True)
)","<class 'stable_baselines3.common.policies.ActorCriticPolicy'>","{}","false","<stable_baselines3.common.buffers.RolloutBuffer object at 0x7065342327a0>","<class 'stable_baselines3.common.buffers.RolloutBuffer'>","{}","0","2018","2005","-1","2","true","1772021245711119600","2005","runs/vec_normalize_xw0jtd6e.pkl","None","/workspace/thesis/wandb/run-2026
…
len=100)","deque([], maxlen=100)","20000","false","0.95","0.99","0.0003","FloatSchedule(ConstantSchedule(val=0.0003))","0.5","PPO","11","8","10","8","2048","100","false","true","True","0","Box(-inf, inf, (14,), float32)","ActorCriticPolicy(
  (features_extractor): FlattenExtractor(
    (flatten): Flatten(start_dim=1, end_dim=-1)
  )
  (pi_features_extractor): FlattenExtractor(
    (flatten): Flatten(start_dim=1, end_dim=-1)
  )
  (vf_features_extractor): FlattenExtractor(
    (flatten): Flatten(start_dim=1, end_dim=-1)
  )
  (mlp_extractor): MlpExtractor(
    (policy_net): Sequential(
      (0): Linear(in_features=14, out_features=64, bias=True)
      (1): Tanh()
      (2): Linear(in_features=64, out_features=64, bias=True)
      (3): Tanh()
    )
    (value_net): Sequential(
      (0): Linear(in_features=14, out_features=64, bias=True)
      (1): Tanh()
      (2): Linear(in_features=64, out_features=64, bias=True)
      (3): Tanh()
    )
  )
  (action_net): Linear(in_features=64, out_features=11, bias=True)
  (value_net): Linear(in_features=64, out_features=1, bias=True)
)","<class 'stable_baselines3.common.policies.ActorCriticPolicy'>","{}","false","<stable_baselines3.common.buffers.RolloutBuffer object at 0x7189d55465f0>","<class 'stable_baselines3.common.buffers.RolloutBuffer'>","{}","0","2018","2005","-1","2","true","1772014640112299500","2005","runs/vec_normalize_uu2960yk.pkl","None","/workspace/thesis/wandb/run-2026
…
"lively-yogurt-98","finished","-","","","2026-02-24T16:42:49.000Z","4495","","1","False","0","[ True  True  True  True  True  True  True  True]","[[ … ","[[… ","<stable_baselines3.common.logger.Logger object at 0x7e488f51cb80>","0","0","100","265000","<stable_baselines3.common.vec_env.vec_normalize.VecNormalize object at 0x7e48b45b4df0>","None","Discrete(11)","DQN","false","32","","","cpu","2005","0","<stable_baselines3.common.vec_env.vec_normalize.VecNormalize object at 0x7e48b45b4df0>","deque([], maxlen=100)","deque([], maxlen=100)","20000","false","","0.99","0.0001","FloatSchedule(ConstantSchedule(val=0.0001))","10","DQN","11","8","","8","2048","100","false","true","","0","Box(-inf, inf, (14,), float32)","DQNPolicy(
  (q_net): QNetwork(
    (features_extractor): FlattenExtractor(
      (flatten): Flatten(start_dim=1, end_dim=-1)
    )
    (q_net): Sequential(
      (0): Linear(in_features=14, out_features=64, bias=True)
      (1): ReLU()
      (2): Linear(in_features=64, out_features=64, bias=True)
      (3): ReLU()
      (4): Linear(in_features=64, out_features=11, bias=True)
    )
  )
  (q_net_target): QNetwork(
    (features_extractor): FlattenExtractor(
      (flatten): Flatten(start_dim=1, end_dim=-1)
    )
    (q_net): Sequential(
      (0): Linear(in_features=14, out_features=64, bias=True)
      (1): ReLU()
      (2): Linear(in_features=64, out_features=64, bias=True)
      (3): ReLU()
      (4): Linear(in_features=64, out_features=11, bias=True)
    )
  )
)","<class 'stable_baselines3.dqn.policies.DQNPolicy'>","{}","false","","","","0","2018","2005","-1","0","true","1771951393258687000","2005","runs/vec_normalize_kmbb082e.pkl","","/workspace/thesis/wandb/run-20260224_164248-kmbb082e/files","5000","False","0","","true","0","[]","[]","1000000","0.05","0.1","1","0","LinearSchedule(start=1.0, end=0.05, end_fraction=0.1)","1","100","1","true","true","False","QNetwork(
  (features_extractor): FlattenExtractor(
    (flatten): Flatten(start_dim=1, end_dim=-1)
  )
  (q_net): Sequential(
    (0): Linear(in_features=14, out_features=64, bias=True)
    (1): ReLU()
    (2): Linear(in_features=64, out_features=64, bias=True)
    (3): ReLU()
    (4): Linear(in_features=64, out_features=11, bias=True)
  )
)","QNetwork(
  (features_extractor): FlattenExtractor(
    (flatten): Flatten(start_dim=1, end_dim=-1)
  )
  (q_net): Sequential(
    (0): Linear(in_features=14, out_features=64, bias=True)
    (1): ReLU()
    (2): Linear(in_features=64, out_features=64, bias=True)
    (3): ReLU()
    (4): Linear(in_features=64, out_features=11, bias=True)
  )
)","<stable_baselines3.common.buffers.ReplayBuffer object at 0x7e48b45b4b20>","<class 'stable_baselines3.common.buffers.ReplayBuffer'>","{}","10000","1","TrainFreq(frequency=4, unit=<TrainFrequencyUnit.STEP: 'step'>)","False","","1037.28515625","1723.5267333984375","3532.616455078125","1628.547119140625","3314.018310546875","53","1000.0851","53","931.637","53","1042.8992","53","1069.0376","265000","53","791.0106","959.9089965820312","46.724178314208984","75","","","","","","0.0001","0.0077252393","","","694.0274658203125","0.05","","","","","","","","",""
…
axlen=100)","1000","false","0.95","0.99","0.0003","<function get_schedule_fn.<locals>.<lambda> at 0x000001BBBBBEC280>","0.5","PPO","11","4","10","4","2048","100","false","true","True","0","Box(-inf, inf, (15,), float32)","ActorCriticPolicy(
  (features_extractor): FlattenExtractor(
    (flatten): Flatten(start_dim=1, end_dim=-1)
  )
  (pi_features_extractor): FlattenExtractor(
    (flatten): Flatten(start_dim=1, end_dim=-1)
  )
  (vf_features_extractor): FlattenExtractor(
    (flatten): Flatten(start_dim=1, end_dim=-1)
  )
  (mlp_extractor): MlpExtractor(
    (policy_net): Sequential(
      (0): Linear(in_features=15, out_features=64, bias=True)
      (1): Tanh()
      (2): Linear(in_features=64, out_features=64, bias=True)
      (3): Tanh()
    )
    (value_net): Sequential(
      (0): Linear(in_features=15, out_features=64, bias=True)
      (1): Tanh()
      (2): Linear(in_features=64, out_features=64, bias=True)
      (3): Tanh()
    )
  )
  (action_net): Linear(in_features=64, out_features=11, bias=True)
  (value_net): Linear(in_features=64, out_features=1, bias=True)
)","<class 'stable_baselines3.common.policies.ActorCriticPolicy'>","{}","false","<stable_baselines3.common.buffers.RolloutBuffer object at 0x000001BBBBBA5BE0>","<class 'stable_baselines3.common.buffers.RolloutBuffer'>","{}","0","2005","1980","-1","0","true","1769669055968732000","1980","runs/vec_normalize_f1i0io40.pkl","None","c:\users\haider\desktop\cycl
…
