…
3bbe0>","CropPlanningFixedPlantingRotationObserver","deque([], maxlen=100)","deque([], maxlen=100)","2019","CropPlanningFixedPlantingRotationObserver","100","2019","0.05","0.1","1","0","LinearSchedule(start=1.0, end=0.05, end_fraction=0.1)","False","","0.99","1","0.0001","100","1","true","true","FloatSchedule(ConstantSchedule(val=0.0001))","10","DQN","1","10","1","80","True","true","","0","Box(-inf, -inf, (36,), float32)","False","DQNPolicy(
  (q_net): QNetwork(
    (features_extractor): FlattenExtractor(
      (flatten): Flatten(start_dim=1, end_dim=-1)
    )
    (q_net): Sequential(
      (0): Linear(in_features=36, out_features=64, bias=True)
      (1): ReLU()
      (2): Linear(in_features=64, out_features=64, bias=True)
      (3): ReLU()
      (4): Linear(in_features=64, out_features=28, bias=True)
    )
  )
  (q_net_target): QNetwork(
    (features_extractor): FlattenExtractor(
      (flatten): Flatten(start_dim=1, end_dim=-1)
    )
    (q_net): Sequential(
      (0): Linear(in_features=36, out_features=64, bias=True)
      (1): ReLU()
      (2): Linear(in_features=64, out_features=64, bias=True)
      (3): ReLU()
      (4): Linear(in_features=64, out_features=28, bias=True)
    )
  )
)","<class 'stable_baselines3.dqn.policies.DQNPolicy'>","{}","QNetwork(
  (features_extractor): FlattenExtractor(
    (flatten): Flatten(start_dim=1, end_dim=-1)
  )
  (q_net): Sequential(
    (0): Linear(in_features=36, out_features=64, bias=True)
    (1): ReLU()
    (2): Linear(in_features=64, out_features=64, bias=True)
    (3): ReLU()
    (4): Linear(in_features=64, out_features=28, bias=True)
  )
)","QNetwork(
  (features_extractor): FlattenExtractor(
    (flatten): Flatten(start_dim=1, end_dim=-1)
  )
  (q_net): Sequential(
    (0): Linear(in_features=36, out_features=64, bias=True)
    (1): ReLU()
    (2): Linear(in_features=64, out_features=64, bias=True)
    (3): ReLU()
    (4): Linear(in_features=64, out_features=28, bias=True)
  )
)","<stable_baselines3.common.buffers.ReplayBuffer object at 0x70cd5de8ec20>","<class 'stable_baselines3.common.buffers.ReplayBuffer'>","{}","","","","0","-1","1","1771945584860840200","","10000","1","/workspace/thesis/wandb/run-20260224_150621-yk2yycaq/files","500","2018","TrainFreq(frequency=4, unit=<TrainFrequencyUnit.STEP: 'step'>)","2005","False
…
","100","2019","","","","","","True","1","0.99","","0.0007","","1","true","true","FloatSchedule(ConstantSchedule(val=0.0007))","0.5","A2C","1","10","1","80","False","true","False","0","Box(-inf, -inf, (11,), float32)","","ActorCriticPolicy(
  (features_extractor): FlattenExtractor(
    (flatten): Flatten(start_dim=1, end_dim=-1)
  )
  (pi_features_extractor): FlattenExtractor(
    (flatten): Flatten(start_dim=1, end_dim=-1)
  )
  (vf_features_extractor): FlattenExtractor(
    (flatten): Flatten(start_dim=1, end_dim=-1)
  )
  (mlp_extractor): MlpExtractor(
    (policy_net): Sequential(
      (0): Linear(in_features=11, out_features=64, bias=True)
      (1): Tanh()
      (2): Linear(in_features=64, out_features=64, bias=True)
      (3): Tanh()
    )
    (value_net): Sequential(
      (0): Linear(in_features=11, out_features=64, bias=True)
      (1): Tanh()
      (2): Linear(in_features=64, out_features=64, bias=True)
      (3): Tanh()
    )
  )
  (action_net): Linear(in_features=64, out_features=16, bias=True)
  (value_net): Linear(in_features=64, out_features=1, bias=True)
)","<class 'stable_baselines3.common.policies.ActorCriticPolicy'>","{'optimizer_class': <class 'torch.optim.rmsprop.RMSprop'>, 'optimizer_kwargs': {'alpha': 0.99, 'eps': 1e-05, 'weight_decay': 0}}","","","","","","<stable_baselines3.common.buffers.RolloutBuffer object at 0x7b2257d92c20>","<class 'stable_baselines3.common.buffers.RolloutBuffer'>","{}","0",
…
"100","2019","","","","","","False","0.95","0.99","","0.0003","","1","true","true","FloatSchedule(ConstantSchedule(val=0.0003))","0.5","PPO","1","10","1","80","True","true","True","0","Box(-inf, -inf, (36,), float32)","","ActorCriticPolicy(
  (features_extractor): FlattenExtractor(
    (flatten): Flatten(start_dim=1, end_dim=-1)
  )
  (pi_features_extractor): FlattenExtractor(
    (flatten): Flatten(start_dim=1, end_dim=-1)
  )
  (vf_features_extractor): FlattenExtractor(
    (flatten): Flatten(start_dim=1, end_dim=-1)
  )
  (mlp_extractor): MlpExtractor(
    (policy_net): Sequential(
      (0): Linear(in_features=36, out_features=64, bias=True)
      (1): Tanh()
      (2): Linear(in_features=64, out_features=64, bias=True)
      (3): Tanh()
    )
    (value_net): Sequential(
      (0): Linear(in_features=36, out_features=64, bias=True)
      (1): Tanh()
      (2): Linear(in_features=64, out_features=64, bias=True)
      (3): Tanh()
    )
  )
  (action_net): Linear(in_features=64, out_features=16, bias=True)
  (value_net): Linear(in_features=64, out_features=1, bias=True)
)","<class 'stable_baselines3.common.policies.ActorCriticPolicy'>","{}","","","","","","<stable_baselines3.common.buffers.RolloutBuffer object at 0x7bdf84476e90>","<class 'stable_baselines3.common.buffers.RolloutBuffer'>","{}","0","-1","1","1771937114237370400","None","","","/workspace/thesis/wandb/run-20260224_124511-f6pjgtck/files","500","2018","","2005
…
